nn_for_bo/v1_model_weights.pth (torch, 3343 bytes, 7 tensors)

layers.0.weight f4 [8, 5]
0.4477504 0.6074222 1.2689523 -0.319831 0.111825146 -0.8530357 -0.57349855 -1.6394655
0.35411102 0.11582538 -1.0411102 -1.3131409 -1.6376331 -0.38704917 -0.087249964 -1.3608679
1.3727937 0.57644093 -0.3153983 -0.09101419 -0.79163754 0.13850649 -0.60341126 2.0398903
-0.4670216 1.5613424 0.44914407 1.7559144 0.3755358 -0.20626979 1.1874055 0.6340921
1.2927527 5.417846 -0.6808328 -1.1704303 -0.30128434 1.131316 0.046423797 0.06217691
00000000: 8a3f e53e 0580 1b3f 076d a23f e4c0 a3be
00000010: 9504 e53d 8c60 5abf cdd0 12bf 01da d1bf
00000020: 0a4e b53e db35 ed3d 1943 85bf 0015 a8bf
00000030: f69d d1bf 4f2b c6be 1cb0 b2bd eb30 aebf
00000040: b4b7 af3f a291 133f e37b a1be a665 babd
00000050: c2a8 4abf a5d4 0d3e 2979 1abf 908d 0240
00000060: 751d efbe 11da c73f 36f6 e53e cec1 e03f
00000070: 3a46 c03e 6338 53be e7fc 973f dc53 223f
00000080: ec78 a53f ff5e ad40 0f4b 2ebf a9d0 95bf
00000090: f141 9abe f6ce 903f e126 3e3d 37ad 7e3d

layers.0.bias f4 [8]
0.38826042 -0.77470744 0.8410478 0.36359927 1.3208928 0.3646891 -0.42915323 -1.2154317
00000000: 12ca c63e 3a53 46bf e94e 573f af29 ba3e
00000010: 0413 a93f 88b8 ba3e f9b9 dbbe 4493 9bbf

layers.2.weight f4 [8, 8]
-0.3991124 -0.046775494 2.2222764 -1.0942817 -0.35314882 -0.5094094 -0.25235552 -2.4201949
-0.9338017 0.75305694 1.0298287 -0.5245955 -0.9419052 -0.70922095 0.003894904 -0.82146627
-0.145041 1.2554648 1.6116261 -0.83321697 -0.46153143 1.0763663 -0.23355886 -1.3821522
0.8277253 -1.049157 -0.61665297 0.3132949 0.8661095 0.42410055 0.38153675 1.2710294
-0.45450634 1.1347991 1.1569128 -0.8043315 1.3801168 -0.003830424 1.716127 -1.5172656
-0.06583164 0.21206428 0.13946977 0.9805174 0.5764063 -2.097705 0.2550299 1.7064092
-0.59382075 1.1020846 0.2066673 -0.90554035 1.8923565 -1.7709594 -1.2991892 -0.19838074
-0.1619363 -0.2971201 -0.3820048 1.2828226 -2.1452491 1.2423505 -0.10927504 0.62169826
00000000: 7658 ccbe a997 3fbd c739 0e40 6c11 8cbf
00000010: eccf b4be a868 02bf be34 81be 79e4 1ac0
00000020: a10d 6fbf 57c8 403f 6dd1 833f e44b 06bf
00000030: b320 71bf 818f 35bf a541 7f3b 9d4b 52bf
00000040: a185 14be 12b3 a03f c449 ce3f b54d 55bf
00000050: d94d ecbe 5fc6 893f 0e2a 6fbe 5dea b0bf
00000060: cee5 533f c74a 86bf f8dc 1dbf 3068 a03e
00000070: 5ab9 5d3f b523 d93e c958 c33e 17b1 a23f
00000080: 0eb5 e8be 1941 913f b815 943f abe8 4dbf
00000090: aba7 b03f da07 7bbb 0daa db3f c235 c2bf
000000a0: bdd2 86bd 6127 593e 2ad1 0e3e 3003 7b3f
000000b0: 5d8f 133f cc40 06c0 4793 823e 9e6b da3f
000000c0: a304 18bf 1c11 8d3f 98a0 533e 7ed1 67bf
000000d0: bd38 f23f ccae e2bf d54b a6bf 5224 4bbe
000000e0: a1d2 25be 2020 98be 2296 c3be 8833 a43f
000000f0: c34b 09c0 5705 9f3f 98cb dfbd 9e27 1f3f

layers.2.bias f4 [8]
-0.05480675 0.19026794 0.028374206 0.5303464 0.023994744 -0.5522082 0.07893595 -1.1939003
00000000: 0b7d 60bd 99d5 423e 0671 e83c c8c4 073f
00000010: a090 c43c 845d 0dbf 2ca9 a13d bad1 98bf

layers.4.weight f4 [8, 8]
-0.88245517 0.2669914 0.014736874 0.32521707 -0.15939571 -0.43239504 -0.17169026 -0.04450566
-3.5709896 -1.0494045 -1.520711 0.056036744 -0.520483 -1.0297673 -0.033576544 0.36642313
-0.2747015 0.9995034 -0.647832 -0.28672692 0.28765345 0.5457877 0.7775366 0.33476165
0.13732302 0.2213501 0.9784903 -0.21262747 1.2252631 -0.14155595 -0.37803018 0.32990453
-0.2529061 -0.5944893 -0.97488177 0.8380362 -0.7130421 -0.0519046 -0.36605975 -0.05125704
-0.95957464 -0.21512415 -0.73880154 0.9267336 -1.2003831 -0.0052751442 1.126291 -0.4790573
-0.5571356 -0.54878616 -1.0376822 0.52052087 -0.40744975 0.020368956 0.026213324 0.10933656
-1.1226239 -2.137004 -1.1537958 1.4183034 -2.060942 1.0546232 1.7159725 -1.366732
00000000: 95e8 61bf 19b3 883e ee72 713c da82 a63e
00000010: a138 23be e262 ddbe 92cf 2fbe 914b 36bd
00000020: 188b 64c0 e352 86bf a8a6 c2bf c986 653d
00000030: 603e 05bf 6acf 83bf 8f87 09bd d09b bb3e
00000040: ada5 8cbe 74df 7f3f 51d8 25bf dfcd 92be
00000050: 5047 933e beb8 0b3f a30c 473f e165 ab3e
00000060: 689e 0c3e 9aa9 623e 577e 7a3f 04bb 59be
00000070: 6cd5 9c3f 0bf4 10be 2c8d c1be 3fe9 a83e
00000080: e97c 81be 7330 18bf da91 79bf 8a89 563f
00000090: ed89 36bf eb99 54bd 2f6c bbbe e7f2 51bd
000000a0: afa6 75bf 8149 5cbe 1922 3dbf 6a3e 6d3f
000000b0: 27a6 99bf 1edb acbb 4e2a 903f 0047 f5be
000000c0: 70a0 0ebf 407d 0cbf c5d2 84bf db40 053f
000000d0: 419d d0be ccdc a63c 53bd d63c d9eb df3d
000000e0: 24b2 8fbf acc4 08c0 95af 93bf f78a b53f
000000f0: 79e6 03c0 e5fd 863f fda4 db3f 13f1 aebf

layers.4.bias f4 [8]
1.0518763 -0.85774875 -0.9460124 0.12539926 -0.25471523 -0.12467541 0.5621664 -0.023711048
00000000: e2a3 863f 6c95 5bbf de2d 72bf aa68 003e
00000010: 096a 82be d255 ffbd 23ea 0f3f ac3d c2bc

layers.6.weight f4 [1, 8]
-0.5429127 -0.39044827 -0.3685891 -0.11902595 0.29513994 -0.2935987 -0.37643635 0.74891484
00000000: 54fc 0abf d6e8 c7be b6b7 bcbe e1c3 f3bd
00000010: 951c 973e 9252 96be 44bc c0be e2b8 3f3f
