nn_for_bo/v2_model.pth (torch, 4687 bytes, 8 tensors)

weight f4 [8, 5]
0.3458531 -0.24446373 -0.033683375 -1.0374628 0.043896645 0.17834893 -0.3001639 -0.08091424
0.20918944 -0.0041707754 0.333034 0.57279825 -0.0154368235 0.21359406 0.022039602 0.16846824
-0.25636324 0.055906273 0.3779949 -0.003322132 -0.19118574 -0.6570397 -0.025426373 -0.05211848
0.0070694187 0.14174202 0.20735691 -0.0074447426 -0.26470992 -0.07748674 -0.38360047 -0.76305014
0.005017563 -0.15815324 -0.008601361 0.35922322 -0.21956787 -0.035341404 -0.31827298 0.015093203
00000000: a813 b13e b354 7abe 94f7 09bd 95cb 84bf
00000010: f8cc 333d 1aa1 363e 15af 99be 5db6 a5bd
00000020: c235 563e 00ab 88bb 6f83 aa3e e8a2 123f
00000030: bbea 7cbc 67b8 5a3e 658c b43c f082 2c3e
00000040: 0b42 83be fafd 643d 8c88 c13e 20b8 59bb
00000050: 32c6 43be c133 28bf f84a d0bc 307a 55bd
00000060: 95a6 e73b d224 113e 5f55 543e 07f3 f3bb
00000070: 0f88 87be 5eb1 9ebd 4867 c4be 4157 43bf
00000080: 5e6a a43b ecf2 21be b9ec 0cbc 1bec b73e
00000090: 66d6 60be 26c2 10bd adf4 a2be 7b49 773c

bias f4 [8]
-0.43489683 0.21487133 -1.1955138 -0.9205951 -0.16238208 0.081010655 -0.55186963 -0.42067876
00000000: ccaa debe 3b07 5c3e 9906 99bf 1fac 6bbf
00000010: 7d47 26be eae8 a53d 5447 0dbf 3563 d7be

weight f4 [8, 8]
0.12141635 0.49402085 0.55013865 -0.18340066 0.18632941 -0.30631018 -0.063853085 -0.41935486
0.14272796 -0.4739024 -0.3524719 0.29464048 0.1596525 -0.23910175 -0.19167377 0.2006254
-0.37977776 0.36728877 0.02164396 0.044852987 0.2547097 -0.72694075 0.114656925 0.13043469
-0.08281396 0.42427894 0.25729185 0.17191061 -0.22948922 0.15188183 0.116931126 -0.40327767
0.46992922 -0.35133764 -0.1953777 -0.6013901 0.23460545 0.34091514 0.08843942 -0.17197931
0.14089933 -0.041375954 -0.1983591 0.4079275 0.398289 0.18137984 0.0408711 0.5157058
-0.21026975 0.10519058 0.115012445 -0.0813159 -0.16034225 -0.19811039 0.16993733 0.38789797
0.11203863 0.24607272 -0.30285722 -0.16833165 -0.34906116 -0.050091352 0.3365473 0.10123337
00000000: 23a9 f83d 4df0 fc3e e3d5 0c3f 62cd 3bbe
00000010: 23cd 3e3e b0d4 9cbe 68c5 82bd aeb5 d6be
00000020: 4727 123e 56a3 f2be 3277 b4be 1edb 963e
00000030: f27b 233e 17d7 74be 2146 44be bf70 4d3e
00000040: 3b72 c2be 460d bc3e ad4e b13c c4b7 373d
00000050: 4f69 823e ca18 3abf 40d1 ea3d ac90 053e
00000060: 5e9a a9bd 173b d93e c2bb 833e 5609 303e
00000070: 39ff 6abe e986 1b3e 9679 ef3d 697a cebe
00000080: 909a f03e 87e2 b3be 1711 48be b4f4 19bf
00000090: 693c 703e 6e8c ae3e ba1f b53d 581b 30be
000000a0: ea47 103e d579 29bd a61e 4bbe e0db d03e
000000b0: 89ec cb3e a3bb 393e 7468 273d 4c05 043f
000000c0: f450 57be 296e d73d a58b eb3d f388 a6bd
000000d0: c230 24be 73dd 4abe 0d04 2e3e 909a c63e
000000e0: 8274 e53d 7dfa 7b3e 1a10 9bbe 225f 2cbe
000000f0: 25b8 b2be 972c 4dbd ed4f ac3e 7153 cf3d

bias f4 [8]
-0.2993076 0.4024703 0.09321289 0.28267953 0.48657432 0.18406998 0.14093491 -0.16078736
00000000: d93e 99be 9610 ce3e 66e6 be3d 5fbb 903e
00000010: 4520 f93e d77c 3c3e 3e51 103e 71a5 24be

weight f4 [8, 8]
-0.2272901 0.1931174 0.08238001 0.3592009 0.25927413 0.0464112 -0.02649693 0.21356764
-0.37761968 0.4644261 0.07979094 0.17500024 -0.17805274 -0.020407815 0.0029930533 0.2763728
-0.28934827 0.07140663 0.16108416 -0.11532636 -0.03477626 0.23517069 -0.37924218 -0.2099688
0.0015435863 -0.34258124 -0.31382984 0.23653351 -0.109979354 -0.13686378 0.028205784 0.16652186
-0.26081306 0.077480376 0.26648083 -0.082775146 -0.14467573 0.12862201 0.19805558 0.16072412
0.2612034 -0.2540324 -0.26671368 -0.24061997 0.3115601 -0.3795704 -0.09883338 0.6143219
0.19648992 -0.14512657 0.37653866 -0.30709103 0.060199115 -0.071215406 -0.27878174 0.13274592
0.23737898 0.21631245 -0.0052941693 0.5682742 0.2486994 0.09773375 -0.025884109 -0.21428928
00000000: bcbe 68be 91c0 453e dab6 a83d 2ee9 b73e
00000010: 94bf 843e ac19 3e3d 1710 d9bc 7ab1 5a3e
00000020: 5e57 c1be 42c9 ed3e 6f69 a33d 4333 333e
00000030: 7553 36be 4a2e a7bc 1a27 443b bc80 8d3e
00000040: 7525 94be a43d 923d 3ff3 243e 3a30 ecbd
00000050: 8d71 0ebd 96d0 703e 082c c2be 1002 57be
00000060: 2952 ca3a cf66 afbe 4eae a0be d735 723e
00000070: db3c e1bd 0526 0cbe d10f e73c b584 2a3e
00000080: 4a89 85be 08ae 9e3d 2d70 883e 0486 a9bd
00000090: e025 14be 7db5 033e 15cf 4a3e dd94 243e
000000a0: 74bc 853e 8910 82be b28e 88be 1565 76be
000000b0: ce84 9f3e 0d57 c2be 2869 cabd 3344 1d3f
000000c0: a734 493e 0f9c 14be adc9 c03e 093b 9dbe
000000d0: 5993 763d 62d9 91bd 7bbc 8ebe 8cee 073e
000000e0: 7a13 733e 0381 5d3e b67a adbb 6b7a 113f
000000f0: 0eab 7e3e a228 c83d e90a d4bc a66e 5bbe

bias f4 [8]
-0.13692361 -0.18906835 -0.06291629 0.20888938 -0.0073398296 0.39730144 -0.14725219 0.17315164
00000000: b435 0cbe 229b 41be 41da 80bd 19e7 553e
00000010: f482 f0bb 186b cb3e 47c9 16be aa4e 313e

weight f4 [4, 8]
-0.0484525 0.019506028 -0.1377285 -0.1518654 -0.040500227 0.014019748 -0.052115615 -0.045879144
0.10450707 -0.094837524 -0.039822962 0.08095567 -0.053481836 -0.16921918 0.04889588 -0.39892176
0.20149434 0.36733326 0.017298885 -0.13349408 -0.009836257 -0.14800581 -0.17295021 0.32252872
0.20095392 -0.44409633 -0.0055298316 -0.24209723 -0.2835881 -0.31466296 -0.11309379 -0.18779531
00000000: 2176 46bd 1bcb 9f3c b308 0dbe 9a82 1bbe
00000010: 91e3 25bd 16b3 653c 2f77 55bd c5eb 3bbd
00000020: cd07 d63d 2d3a c2bd 671d 23bd 16cc a53d
00000030: c50f 5bbd cb47 2dbe 0c47 483d 793f ccbe
00000040: 8854 4e3e 1b13 bc3e 64b6 8d3c acb2 08be
00000050: 4128 21bc d68e 17be dc19 31be 7c22 a53e
00000060: ddc6 4d3e 9860 e3be 9733 b5bb 56e8 77be
00000070: 7632 91be 811b a1be b89d e7bd 6a4d 40be

bias f4 [4]
0.021482276 0.20674333 -0.12984352 0.1857482
00000000: 99fb af3c 86b4 533e b3f5 04be c734 3e3e
