nn_for_bo/v3_model.pth (torch, 4571 bytes, 5 tensors)

weight f4 [16, 5]
0	0xbd2b0fa3	-0.04176296
1	0xbdfb4cc7	-0.122705035
2	0x3b8d14c0	0.004305452
3	0xbfef188c	-1.8679366
4	0x3c0bb2dc	0.00852653
5	0x3f12a872	0.5728828
6	0x3f183097	0.5944914
7	0x3eb99340	0.36245155
8	0x3f046757	0.51720184
9	0xba9728eb	-0.001153258
10	0x3f28af5c	0.6589258
11	0xbf658a09	-0.8966375
12	0x3e96cb67	0.2945206
13	0x3f06bed4	0.5263493
14	0xbc162668	-0.00916443
15	0xbe002de2	-0.12517503
16	0x3e83432b	0.25637183
17	0xbf1214cc	-0.57062984
18	0x3e5ddd6a	0.21666494
19	0xbe059c8f	-0.13048004
20	0x3deca0a8	0.1155408
21	0x3f296fb3	0.66186064
22	0xbe82ceff	-0.2554855
23	0x3ee78ba5	0.45223728
24	0xbb82d37f	-0.0039924975
25	0x3f3188cb	0.69349355
26	0x3f8d06fd	1.1017758
27	0x3e95c9b8	0.29255462
28	0xbddf7971	-0.10911835
29	0x3c4a2405	0.012337689
30	0xbdee3667	-0.1163147
31	0x3ff85d0a	1.9403393
32	0x3e52b6ce	0.20577547
33	0xbe014dd0	-0.1262734
34	0x3b8d8854	0.00431923
35	0x3dd91aba	0.10600801
36	0x3ed8aa75	0.42317548
37	0xbf1afb2d	-0.60539514
38	0xbe927029	-0.28601196
39	0xbc777902	-0.015104534
40	0xbcff6c07	-0.031179441
41	0x3e4defd1	0.20111014
42	0xbe644e91	-0.22295596
43	0x3cc19c66	0.023634147
44	0x3e86a8ff	0.2630081
45	0x3f63e75c	0.890249
46	0xbf2c59a1	-0.6732426
47	0x3d2e9930	0.04262656
48	0xbc9dba4a	-0.019253869
49	0x3d64c362	0.055850394
50	0xbf381270	-0.71903133
51	0xbe73f5fa	-0.23824301
52	0x3e9a332f	0.30117175
53	0x3ecbdbf2	0.39816242
54	0x3d1065b2	0.035253234
55	0x3f175d4e	0.59126747
56	0x3ec3816a	0.38184673
57	0xbedcca3d	-0.43123046
58	0x3f081789	0.5316091
59	0xbc05dacc	-0.008169841
60	0x3e85ee46	0.2615835
61	0xbeaead1c	-0.34116447
62	0x3a741116	0.00093104073
63	0xbfe08655	-1.7540995
64	0xb7edc0b8	-2.8342343e-05
65	0xbf68497c	-0.9073713
66	0xbe2fbc62	-0.17161706
67	0x3dabe406	0.083931014
68	0xbda4d60e	-0.0804864
69	0xbcc918ea	-0.024548013
70	0xbd841eaa	-0.06451161
71	0xc0268ce2	-2.6023488
72	0xbe50d469	-0.20393528
73	0x3db0ebdf	0.08638739
74	0x3b5c75f9	0.0033639653
75	0xbfdcaad3	-1.7239631
76	0xbed8b097	-0.42322227
77	0x3d8c3327	0.06845694
78	0xbc18767e	-0.0093055945
79	0x3a2acf23	0.0006515851

bias f4 [16]
0	0xbf7e5536	-0.9934877
1	0xbf85ec3d	-1.0462719
2	0xbf1f6206	-0.62258947
3	0xbee78f76	-0.4522664
4	0x3f816033	1.0107483
5	0x3f71c364	0.9443877
6	0xbf14d24f	-0.58133405
7	0x3e979d88	0.29612374
8	0xbded9beb	-0.116020046
9	0xbed740f9	-0.42041758
10	0xbf30bc85	-0.6903766
11	0xbeda2e9e	-0.4261369
12	0xbed9647c	-0.42459476
13	0xbf393214	-0.7234204
14	0x3e630a44	0.22171885
15	0xbf53bbab	-0.82708234

weight f4 [16, 16]
0	0xbeab7887	-0.33490393
1	0x3e68ff43	0.22753625
2	0x3f725db4	0.9467423
3	0x3ea65a9a	0.32490999
4	0x3d0fa087	0.0350652
5	0xbe7ef629	-0.2489859
6	0x3caa3cf9	0.020781027
7	0xbf280524	-0.65632844
8	0x3e014fd5	0.1262811
9	0x3ee224d4	0.44168723
10	0xbea5e57c	-0.32401645
11	0xbcffa10b	-0.031204721
12	0x3e17764a	0.14791217
13	0xbea9f89d	-0.3319749
14	0x3f9cab2e	1.223974
15	0xbe0a7bba	-0.1352376
16	0xbefddfe8	-0.4958489
17	0x3f4d980c	0.8031013
18	0xbea2e6e2	-0.31816775
19	0x3d5a78a0	0.053337693
20	0x3dcb8ecd	0.099393465
21	0xbf632634	-0.8873017
22	0x3f50dd7d	0.81587964
23	0x3e7d0744	0.24709803
24	0x3d93933a	0.072058156
25	0xbedc705b	-0.4305447
26	0xbe176f58	-0.14788568
27	0x3f320e3b	0.69552964
28	0x3e23e924	0.16006905
29	0x3e12af07	0.1432458
30	0xbae7d49f	-0.0017687267
31	0xbcd0e528	-0.025499895
32	0xbe359b06	-0.17734918
33	0x3e2211d5	0.15827115
34	0xbecfd0df	-0.40589043
35	0x3eacb7e4	0.33734047
36	0x3e2e9d63	0.17052226
37	0xbe9f37f3	-0.31097373
38	0x3c817886	0.01580454
39	0x3f0e336e	0.55547225
40	0x3ec6ae12	0.3880468
41	0xbe4c1473	-0.19929676
42	0xbea2cd0f	-0.31797072
43	0x3ec453f7	0.3834531
44	0x3f018f1d	0.50609
45	0xbe3c5f04	-0.1839562
46	0xbea1b67f	-0.31584546
47	0x3f2deb4f	0.6793718
48	0xbe32781d	-0.17428632
49	0x3ea97919	0.33100203
50	0x3dd254b4	0.10270062
51	0x3cedc1d7	0.029023094
52	0x3e8778d5	0.26459375
53	0xbec1844f	-0.37796256
54	0x3f425db4	0.7592423
55	0xbe19c4f6	-0.15016541
56	0xbea67565	-0.3251144
57	0xbe7f7f75	-0.24950965
58	0xbebe26ac	-0.3713888
59	0x3ebb34ee	0.3656382
60	0x3eea0111	0.4570394
61	0xbe4fa597	-0.20278011
62	0x3ea5426b	0.32277235
63	0x3c4f3f29	0.012649336
64	0x3dfe6873	0.12422266
65	0xbe12b778	-0.143278
66	0xbed968fc	-0.4246291
67	0xbf1c9671	-0.61167055
68	0x3ecc9e8d	0.39964715
69	0x3d8f4985	0.069964446
70	0x3f8e31e6	1.1108978
71	0xbdc407ed	-0.09571824
72	0xbeef39f9	-0.46723917
73	0x3d9adf67	0.07562142
74	0x3e4b5dfa	0.19860068
75	0xbddf8647	-0.10914283
76	0x3e9e0429	0.3086255
77	0xbe992b45	-0.29915825
78	0x3e974a69	0.29548958
79	0x3e664970	0.22488952
80	0xbf402291	-0.75052744
81	0x3e160f35	0.14654239
82	0x3eae6af2	0.34065968
83	0x3e138f17	0.14410053
84	0xbf194e3c	-0.59885
85	0x3f1ef5a3	0.6209356
86	0xbf34c369	-0.7061067
87	0xbeb5a071	-0.3547397
88	0x3e80f649	0.251879
89	0xbe5d28fc	-0.21597666
90	0xbec92617	-0.39286873
91	0xbde8489a	-0.11341973
92	0x3f0b0744	0.5430796
93	0xbe1d40ee	-0.153568
94	0xbed9d550	-0.42545557
95	0x3ee73bbd	0.45162764
96	0x3ec48328	0.38381314
97	0xbe1525ec	-0.14565247
98	0x3dcca97e	0.099932656
99	0xbde0ddea	-0.10979827
100	0x3e0fcdd2	0.14043358
101	0x3d9bdf8c	0.076109976
102	0xbe64d253	-0.22345857
103	0xbebea5a0	-0.37235737
104	0x3f1b34e3	0.60627574
105	0x3ed1f29e	0.41005415
106	0x3ef64f96	0.48107594
107	0xbf03a2e0	-0.514204
108	0xbe1c2506	-0.15248498
109	0xbe06441c	-0.13111919
110	0xbe428e0a	-0.18999496
111	0xbe5eb5ae	-0.21748993
112	0x3f068604	0.5254824
113	0xbe1ddeb4	-0.15416986
114	0xbe921498	-0.28531337
115	0x3df43e3c	0.11925933
116	0x3e6ae392	0.22938374
117	0xbecf872f	-0.40532824
118	0xbe0fd0ee	-0.14044544
119	0x3e925270	0.2857852
120	0x3e94b533	0.29044494
121	0xbdbcbeb1	-0.09216059
122	0x3df83c31	0.121208556
123	0xbec52127	-0.38501856
124	0xbddcbe66	-0.10778503
125	0x3ec88cbb	0.3916987
126	0xbeebdf6c	-0.46068895
127	0xbde65d39	-0.112482496
128	0x3c4cc301	0.012497664
129	0x3f823b39	1.0174323
130	0xbe3419d0	-0.17587972
131	0x3f2bfabc	0.67179465
132	0xbee84265	-0.45363155
133	0xbec76d70	-0.38950682
134	0x3f01fea0	0.5077915
135	0x3f2cb765	0.6746734
136	0x3ed4ec49	0.4158652
137	0x3e1faa15	0.15592225
138	0xbedf3424	-0.43594468
139	0x3f2bc8e6	0.6710342
140	0xbe61740f	-0.22016929
141	0xbe153bc2	-0.14573577
142	0xbebf49ef	-0.37361094
143	0xbf184ee6	-0.5949539
144	0x3fa3a30d	1.2784134
145	0x3ed83bce	0.42233127
146	0x3eb0975e	0.34490484
147	0x3e50973d	0.20370193
148	0xbe290e0d	-0.16509266
149	0x3dc221dc	0.094791144
150	0xbe4441d2	-0.19165733
151	0xbeb9946e	-0.36246055
152	0xbd602542	-0.05472303
153	0x3f13bd29	0.5771051
154	0x3e8c138a	0.27358657
155	0x3f029182	0.5100328
156	0xbf81a90d	-1.0129715
157	0xbe09beeb	-0.13451736
158	0xbda1ff56	-0.079100296
159	0xbf6f9b48	-0.93596315
160	0xbe006f7d	-0.1254253
161	0xbdbdd274	-0.092686564
162	0xbe24e1fd	-0.16101833
163	0xbe4796a2	-0.19491056
164	0x3ecd6e93	0.40123424
165	0xbeb94f45	-0.3619329
166	0x3f384633	0.71982116
167	0xbec8e415	-0.39236513
168	0x3f2dd892	0.67908585
169	0x3dbdbf92	0.09265055
170	0xbddd861d	-0.10816596
171	0x3d4efef9	0.05053613
172	0x3ddb3180	0.10702801
173	0xbed9a3a7	-0.4250767
174	0x3ee9dfce	0.45678562
175	0x3e1c1de3	0.15245776
176	0xbe2c56e0	-0.16830015
177	0xbedd0329	-0.43166474
178	0xbed15e36	-0.4089219
179	0xbeba758f	-0.36417815
180	0x3ef60f8b	0.48058733
181	0xbf59df5b	-0.8510644
182	0xbd8f4106	-0.06994824
183	0x3e515188	0.20441258
184	0xbd1b4b41	-0.037913565
185	0xbde30b9c	-0.11086199
186	0xbf70377f	-0.9383468
187	0x3e40593e	0.18784043
188	0x3ec04dbe	0.37559313
189	0xbf256c86	-0.6461872
190	0x3e2b31e7	0.16718255
191	0xbf30e0d3	-0.69093055
192	0xbd029f54	-0.03189023
193	0x3eec1652	0.4611078
194	0xbef8d21a	-0.48597795
195	0x3cda1dd2	0.026625548
196	0xbe804f8c	-0.2506069
197	0x3e8509f7	0.25984165
198	0xbd7212cf	-0.05909997
199	0x3f46e0c3	0.7768671
200	0x3e63aa1e	0.22232863
201	0x3cafa792	0.021442208
202	0xbef012b3	-0.46889266
203	0x3ef28c19	0.4737251
204	0x3d6cf1be	0.05784773
205	0xbe5a0253	-0.21289949
206	0x3ddb47fb	0.107070886
207	0xbef7b79b	-0.48382267
208	0xbe2e71e8	-0.1703564
209	0x3fac781a	1.3474152
210	0xbe72f7b7	-0.23727308
211	0xbd29803c	-0.04138206
212	0xbec04a26	-0.3755657
213	0x3e6a6cd3	0.22893076
214	0x3f25a1d7	0.64700073
215	0xbd9794fe	-0.07401465
216	0x3dde80f0	0.108644366
217	0xbf122b73	-0.5709755
218	0xbed7e2e0	-0.4216528
219	0x3f247f2c	0.6425655
220	0xbdb9a658	-0.09064931
221	0xbe1074f9	-0.14107122
222	0xbfa0cbd6	-1.2562206
223	0xbe50b114	-0.2038005
224	0xbd72d02e	-0.059280567
225	0x3dab30b8	0.08358902
226	0x3e81e2f3	0.2536846
227	0xbf08ba84	-0.534096
228	0x3e80824f	0.25099418
229	0xbd4aab3f	-0.04947972
230	0x3f194718	0.59874105
231	0xbeb3ff72	-0.35155827
232	0xbf0c1d03	-0.5473177
233	0x3deeb7a1	0.11656118
234	0xbf00da90	-0.503335
235	0xbee91154	-0.45521033
236	0x3cb19460	0.021677196
237	0xbf4193fc	-0.7561643
238	0x3edab2f4	0.42714655
239	0xbd767ddb	-0.06017862
240	0x3ea9c4ac	0.3315786
241	0xbe2cca3e	-0.16874024
242	0xbe881f10	-0.265862
243	0xbed36ed4	-0.41295493
244	0x3edd44fd	0.43216696
245	0xbe62106e	-0.2207658
246	0x3e21997b	0.15781204
247	0xbe6b5e6c	-0.22985238
248	0xbed2f459	-0.41202047
249	0xbd81a04e	-0.06329404
250	0x3ea4d8bb	0.32196602
251	0xbc0e697e	-0.0086921435
252	0xbf01f4a9	-0.50763947
253	0xbe34729a	-0.17621842
254	0x3e20a4a8	0.15687811
255	0xbd90d096	-0.070710346

bias f4 [16]
0	0xbe9a2bc8	-0.30111527
1	0xbd057d6b	-0.03259031
2	0x3e181e7a	0.14855376
3	0xbd2a2d04	-0.041546836
4	0x3ef9a0c7	0.48755476
5	0xbeeb6950	-0.45978785
6	0x3c948876	0.018131476
7	0x3e0703c2	0.13185027
8	0xbf1262ee	-0.57182205
9	0x3e82b6c1	0.25530055
10	0xbe42e991	-0.19034411
11	0x3ebefccf	0.37302253
12	0xbf035e3e	-0.5131568
13	0xbe7cf664	-0.24703366
14	0x3e6e65b4	0.23280984
15	0x3eeafb85	0.4589502

weight f4 [4, 16]
0	0xbc4ff9a9	-0.012693801
1	0x3d5eca06	0.054391883
2	0x3eb4895e	0.35261053
3	0xbf15dd3f	-0.5854072
4	0x3ced3722	0.028956953
5	0x3e95e383	0.2927514
6	0x3f9369a7	1.1516618
7	0xbd6ba011	-0.057525698
8	0x3da5fc8e	0.081048116
9	0xbc7f9b19	-0.015600943
10	0x3f9f8caf	1.2464808
11	0x3e4ea6be	0.20180795
12	0x3e608460	0.21925497
13	0xbc359878	-0.011083715
14	0xbe7e84e2	-0.24855378
15	0x3dfe5ab2	0.124196425
16	0x3e46104b	0.19342153
17	0xbdfb9258	-0.12283772
18	0xbf11077a	-0.56652033
19	0xbf22ab14	-0.63542295
20	0xbcc66d20	-0.024221957
21	0xbf8baefe	-1.0912778
22	0x3e6ac8d1	0.22928168
23	0x3f31dd1d	0.6947802
24	0x3eb0dda3	0.34544095
25	0x3fa3a148	1.2783594
26	0xbec85582	-0.39127737
27	0xbe924e9a	-0.28575593
28	0x3e9dabb2	0.30795056
29	0x3c2cdf60	0.010551304
30	0xbee108cd	-0.43952027
31	0x3f59eeb1	0.8512984
32	0x3efa39f3	0.48872337
33	0xbf8a040d	-1.0782486
34	0xbf3f4acc	-0.74723506
35	0x3e7aec53	0.24504213
36	0x3f031e85	0.51218444
37	0x3eae466b	0.340381
38	0x3ef0b3f3	0.4701229
39	0xbed34a5f	-0.41267678
40	0xbf85f960	-1.0466728
41	0x3e5d2bb1	0.21598698
42	0x3e14d64c	0.14534873
43	0xbf9c3e4f	-1.2206515
44	0xbf3badf2	-0.73312294
45	0x3bf39d90	0.0074345544
46	0x3f9a8fbf	1.2075118
47	0x3d737a96	0.05944308
48	0x3f66402a	0.89941657
49	0x3fae7523	1.3629497
50	0xbe22de6c	-0.1590516
51	0x3f5e86e2	0.86924565
52	0x3f1ab6ae	0.60435
53	0xbf671731	-0.9026976
54	0xbe37e05a	-0.17956677
55	0xbef91483	-0.48648462
56	0x3e9ab93d	0.3021945
57	0xbcb84ec7	-0.022498501
58	0x3f8c17a7	1.0944718
59	0x3e53b752	0.206754
60	0xbd414b2d	-0.047190834
61	0xbf9d5974	-1.2292924
62	0x3f382dc9	0.7194486
63	0x3f06beca	0.5263487
